experiments/SAE/final_model.pth (torch, 272199 bytes, 33 tensors)

conv_pre.bias f4 [64]
00000000: 1dc4 1bbe 2819 16bf 1b38 63be 6736 28bf
00000010: 5906 b4be 64a9 1bbf fe2f edbe bc92 c9be
00000020: 2a94 dabe 485c a0be 9fdb 30bf 1ba1 c5be
00000030: 7073 49be 8070 8fbe 6371 15bf 0d7f a3be
00000040: 14a6 7abe 5ea0 cfbe 6c75 8dbe f7d3 7cbe
00000050: a1d1 9bbe fc50 f3be 2272 bfbe 8422 7cbe
00000060: ebca c3be c7c9 e5be 268e b8be 17df 98be
00000070: 30fb d5be 7d9d 2fbf 3991 a4be 9673 2cbf
00000080: cf88 cabe 938f 9dbe fc5c e8be 5a2a a6be
00000090: f008 4dbe 38e3 dabe cdd1 14be 7024 b1be
000000a0: 367c bfbe 07cd 13bf 98f9 dabe aac4 74be
000000b0: a630 cabe e9a2 52be fdab 6fbe bb33 cabe
000000c0: fc8b 91be d4af 09bf 2124 56be 300e 85be
000000d0: 92f6 35be 981d 73be beab 02bf f33c 89be
000000e0: aa85 d1be 6d32 9cbe 1887 86be 2a7a 27bf
000000f0: d194 87be ea15 a0be 65f5 98be 393a c2be
-0.1521153 -0.58632135 -0.22189371 -0.6570801 -0.35161093 -0.60805345 -0.46325678 -0.39369762
-0.42691165 -0.31320405 -0.69085115 -0.38599476 -0.19672942 -0.28015518 -0.5837614 -0.3193287
-0.24477416 -0.40552038 -0.27628648 -0.24690233 -0.30433372 -0.47522724 -0.37391764 -0.24622542
-0.38240752 -0.44880506 -0.3604595 -0.29857704 -0.41793203 -0.68599683 -0.32142046 -0.6736387
-0.39557502 -0.307736 -0.4538344 -0.32454187 -0.2002294 -0.4275148 -0.14533158 -0.34598112
-0.37399453 -0.5773472 -0.4276855 -0.23903146 -0.3949024 -0.20569958 -0.23405452 -0.39492592
-0.28427112 -0.5378392 -0.2091222 -0.25987387 -0.1776984 -0.23741758 -0.5104331 -0.26804313
-0.4092229 -0.30507222 -0.26274943 -0.6542078 -0.26480725 -0.3126672 -0.2987472 -0.37935045

conv_pre.weight_g f4 [64, 1, 1]
00000000: f290 9f3e 52de 953e a87d 813e e718 a63e
00000010: 7de5 963e aa41 a33e b86e c33e 705b b73e
00000020: f874 823e b1d4 683e 590f ad3e dad5 863e
00000030: 4f9c a03e f36a 833e 3536 8e3e 79fe 713e
00000040: cdaf 8e3e 83b7 853e 8d1b a03e 2686 9e3e
00000050: 53bf c73e 78c3 803e 6eb6 953e 7b4e b23e
00000060: e262 8f3e c5e2 7c3e 4eba c73e 263c 893e
00000070: 4585 883e 5b6e 7c3e 5184 ac3e a1c5 9e3e
00000080: 063f 9b3e a8d9 ea3e 2ea3 513e 6668 b13e
00000090: 6c4b 603e aadf 8c3e e902 9e3e 97e9 b13e
000000a0: 8476 853e cf19 943e 15c8 853e ea0d b83e
000000b0: e271 963e 3f42 a23e 887d 7b3e c013 813e
000000c0: f8e0 a53e d87e cd3e 1f60 a23e b591 9a3e
000000d0: b634 773e 7c96 993e b39f af3e cb17 903e
000000e0: a334 913e f44e 873e ce34 a73e b75e 783e
000000f0: 0ba1 903e 3ccf aa3e bf6f 9e3e 32f7 a53e
0.31165272 0.2927118 0.2529118 0.32440874 0.2947196 0.31886035 0.3817041 0.3581195
0.25479865 0.22737385 0.33800772 0.2633503 0.31369254 0.25667533 0.27775732 0.2363223
0.278685 0.2611657 0.3127102 0.30961722 0.39013156 0.2514913 0.29240745 0.348255
0.2800513 0.2469588 0.39009327 0.26803702 0.26664177 0.24651472 0.336947 0.31010154
0.3032152 0.45869184 0.20472404 0.34649962 0.21903771 0.27514392 0.30861595 0.34748527
0.26066983 0.2892594 0.26129213 0.35948116 0.2938376 0.31691167 0.24559605 0.2521038
0.323982 0.40135837 0.3171396 0.3018929 0.24141201 0.29997623 0.34301528 0.28143153
0.2836047 0.26427424 0.32657474 0.24254881 0.28247866 0.33361232 0.3094463 0.32415158

conv_pre.weight_v f4 [64, 64, 5]
00000000: 4889 06bc 995e 16bd 42af e3bc 6462 dcbe
00000010: d420 77be fdd5 8abd 8619 40be e93f 1fbe
00000020: 30d2 c83d 7a47 cfbd 5da9 98bd 9141 bcbe
00000030: c7f6 61be ac16 b93d 9f15 933e 81e9 afbe
00000040: 9715 9ebe f00a 03be 01f2 973e e4a7 95bd
00000050: fa1b 6bbd c40d de3c 769b c83d 41fc b53e
00000060: 732e 8b3e c880 043e ffdf 623c fab0 5abc
00000070: e152 1f3e 4338 5a3e 7d6c a13c 8444 f7bd
00000080: d548 45be 3c5d 753e b625 d33e 3612 e93d
00000090: 96a0 59be 23cc 1b3c 4bd3 3f3e d537 ce3e
000000a0: c202 8e3e 9feb 93bd aa0e 073d ecd9 7a3c
000000b0: 060a e53c 9a23 f53d 7b80 59be c77a 6abd
000000c0: 38a0 e43d 6bef c5bc bbbf 963c 506d bc3d
000000d0: ea16 293e 9ffd 183f bb81 b4bd 25d1 14be
000000e0: 62f5 96be 139d 0d3f 5287 a63e cd61 c3bc
000000f0: 85d4 323f 5a7f 42be a9a5 933e bfe2 343e
00000100: 8e4a 8abe 7c6d 79be 8f00 0f3f a7ab 5bbc
00000110: ec23 aebe 8f98 99be 7a06 ad3d adce f6be
00000120: 75d7 a83d 16d0 e7bd 0ac2 883e 94e8 ffbd
00000130: dde7 183d 810d 5f3d 3e26 2ebe 7d2e 203c
00000140: 210c 94bc 6c96 053f acc8 21be e250 93be
00000150: 0fbb cebb 558d 083f 9fe9 98bc 0cfb f4bd
00000160: 1349 083e 24d9 ad3e 4414 973d 97dd 8bbe
00000170: c42b 413e fdfc 09bd b4e4 683e 5f51 02be
00000180: 2d8e 17bd 1ff0 83be 97c2 80be b3b2 cdbc
00000190: 55f4 ffbd cfc9 2c3e 8a0a 1e3e 1f33 e73d
000001a0: 688b 313c 1500 a1bd 5600 3f3e e4f0 ab3d
000001b0: e120 0ebe 72d6 8cbe 07b3 78be f986 f03e
000001c0: ea8f a4be 3079 42be ce49 8a3d 49ae 2dbf
000001d0: 26f3 bebe f4a5 023f ab6b 9e3e 60c7 243e
000001e0: e52e d7bd 23ee 07be 22ef 2cbd 786a 5a3e
000001f0: 5147 a23d 3a2f ae3d 4e82 173d 988a 0cbe
00000200: 17ff c3bd d19e 57be a6a1 10be 83b1 a6bd
00000210: 40b1 34bd 6659 0c3e 2758 273e 0797 e63e
00000220: 1760 913e 9f76 e83e 306f 8a3d f654 89bf
00000230: 77b0 433e ad09 da3e b380 3ebe 6d36 56be
00000240: d91c a8be 968d a73d 9790 eabd 0956 3dbd
00000250: 27f6 1ebd be2e 7abc 708b f33d 73c0 21be
00000260: 3604 533c 94ae 943d ebaf 06be 750e a43c
00000270: 1f68 b0be acce 983d 20eb 15be b410 163e
00000280: a497 aa3d 3430 643e 53f6 963d b7ee 43be
00000290: 9937 0dbd 569b 0e3f fff5 c93e 6558 c1bd
000002a0: b5be 50be 6583 8fbe b90d 98bd 698e 363d
000002b0: 92b3 0b3e 0341 1bbe 0f13 ddbd 34fe d73e
000002c0: 146c b3bc e9c9 283e 7f6c 63be b88d 5dbe
000002d0: 43a5 9a3e 3423 2f3e 4c29 633d 69c2 49bd
000002e0: ba04 3fbe 5220 b53b 4bb6 283e ae21 96bd
000002f0: 8506 19be fb71 98bb 7d2a 4a3e 0a13 153f
00000300: 0d17 c2bd b8b5 f5be d04c 7abe d87b 68bc
00000310: 97e5 023e e954 d33e 6c3d 25bc 7122 58be
00000320: f264 573e d253 97be 56bb fc3d 4118 ebbd
00000330: 5676 9b3e 5dfc 0d3e 1abf 393d c318 263e
00000340: 763a d53d 87fd d7bc c6d3 49bd 284b 0dbf
00000350: 3232 76be 9b75 7d3e d727 213e f544 a33d
00000360: 0600 b93e b540 1abd e3a4 cc3e 141d d53d
00000370: f901 67be ed48 983c 39ae fdbd 9f9b eabd
00000380: 0404 50bc ea20 683e 1629 0b3f 94aa 9bbd
00000390: 69bd 09be b60e fbbe 4c07 6bbe a48d f03d
000003a0: afdc 57be ce68 77bd e5b9 173e 13d8 66be
000003b0: a652 c3bd 60f2 2f3e 33e7 bcbe 19dc 49bb
000003c0: 5ea8 26be 351b d03d e66f 763e aeeb ba3a
000003d0: 4022 433d 51c2 23be 1104 f63e 4e7e 2c3e
000003e0: ed81 00bf e1ca 03bf 3901 9fbc e4ff 8f3d
000003f0: e16b 4fbe b3f3 bb3d 3767 9cba 9680 f83d
-0.008211441 -0.03671131 -0.02779353 -0.43043816 -0.24133617 -0.06779096 -0.18759736 -0.15551724
0.09805715 -0.10121055 -0.074541785 -0.36768773 -0.22066794 0.090375274 0.28727433 -0.34357837
-0.30875847 -0.12797141 0.29676822 -0.07307413 -0.057399727 0.027106173 0.09795277 0.35544017
0.27183875 0.12939751 0.01384735 -0.013347859 0.1555896 0.21310525 0.019705052 -0.12073615
-0.19266064 0.23961347 0.4123971 0.113804266 -0.21252665 0.009509119 0.18732946 0.4027697
0.2773648 -0.072226755 0.03297297 0.015310746 0.027958881 0.11969681 -0.21240418 -0.057245996
0.11163372 -0.024162015 0.018401971 0.09200537 0.16512647 0.59761995 -0.088138066 -0.14532907
-0.29484087 0.553178 0.32525116 -0.023850346 0.6985553 -0.18993893 0.28837326 0.17664622
-0.27010006 -0.24358171 0.5586023 -0.013407624 -0.3401178 -0.29999205 0.08448501 -0.48204556
0.0824422 -0.11318986 0.2671054 -0.12495533 0.037330497 0.054456238 -0.17006776 0.009776709
-0.01807219 0.5218265 -0.15799206 -0.28772646 -0.00630892 0.53340656 -0.018666087 -0.11961946
0.13309126 0.33954728 0.07376912 -0.27317497 0.18864352 -0.033688534 0.22743493 -0.12726353
-0.037000824 -0.25769135 -0.2514846 -0.025109624 -0.124977745 0.16873859 0.15433708 0.112890474
0.01083646 -0.07861344 0.18652472 0.083955556 -0.1387973 -0.2750736 -0.24287044 0.46977976
-0.32141048 -0.18991542 0.067523584 -0.67844063 -0.37294883 0.51034474 0.3094152 0.1609168
-0.10506991 -0.13274436 -0.042220242 0.21329677 0.07923759 0.085051015 0.036989503 -0.13724744
-0.09570139 -0.21056677 -0.14124164 -0.081393264 -0.04411435 0.13705978 0.16342221 0.450371
0.28393623 0.45403 0.067594886 -1.0729053 0.19110285 0.42585507 -0.18603782 -0.209192
-0.3283451 0.08181302 -0.114533596 -0.046224628 -0.038808968 -0.015269933 0.1189183 -0.1579607
0.012879422 0.07259861 -0.13153045 0.020026425 -0.34454438 0.074612945 -0.14640474 0.14654809
0.083297044 0.22284013 0.07371201 -0.19134031 -0.03447685 0.55705774 0.39445493 -0.09440688
-0.20385249 -0.28029934 -0.074244924 0.044569407 0.1364272 -0.15161519 -0.10794651 0.4218613
-0.021902122 0.16483273 -0.22209357 -0.21636093 0.3020421 0.17103273 0.055459306 -0.04925767
-0.18654147 0.0055275345 0.16475789 -0.07330643 -0.14943893 -0.0046522594 0.1974277 0.58232176
-0.09477053 -0.47990203 -0.24443364 -0.014189683 0.12782894 0.4127572 -0.010085445 -0.21106888
0.21034601 -0.29556137 0.12340419 -0.114792354 0.3036372 0.138658 0.045348264 0.16220383
0.10411541 -0.026366008 -0.04927423 -0.55192804 -0.24042585 0.24751894 0.15737854 0.07972137
0.3613283 -0.037659366 0.3996955 0.10405937 -0.22559346 0.018589461 -0.12386746 -0.114554636
-0.01269627 0.22668806 0.5435957 -0.076008946 -0.1345116 -0.4903466 -0.22952002 0.11745766
-0.21080278 -0.060402684 0.14817007 -0.22543363 -0.09537248 0.17182302 -0.3689514 -0.0030801354
-0.16275164 0.10161439 0.24066123 0.0014260912 0.047640085 -0.15992095 0.48049977 0.16845056
-0.5019825 -0.51481444 -0.019409763 0.07031229 -0.20255996 0.09177341 -0.0011932616 0.12133901

ups.0.weight f4 [64, 32, 2]
00000000: 5fd7 533d 5b6f 62be 06b9 d43d b110 4cbe
00000010: 121c afbe 3a01 0bbe dc0f 4a3c 2a7f babe
00000020: 421d a2be 71dd 98be 26b3 a5be 4678 e0be
00000030: ac5a 2cbd 8038 1c3d 7cfd afbd 7fe9 c6bc
00000040: 77dd 54bd 233c dabc 2e4d 77bc 6289 3cbe
00000050: 81c1 1c3e 6095 52bc 5ccd 8e3e bc80 6ebe
00000060: be69 c53d 0d22 38be 0848 393e 0ea1 683d
00000070: c171 11be 701e d23d 02d3 8b3d a329 593e
00000080: 320a fc3d 115d 5bbe 5567 f83d 4e19 ca3d
00000090: 4154 b8bd d5ad 51be de18 e3bd 5718 84bc
000000a0: 6114 cf3e b27e 84be 4533 44be 171e 8fbe
000000b0: 5305 d3bc 0bcc 7abd 63a9 34bf 80cb 9ebe
000000c0: ce6f 293b 82b2 083e ab39 143e 1eb5 dabc
000000d0: f2cb 8dbe 76b4 0bbe 3938 8cbd bd37 8dbc
000000e0: 09bd 97be 743a c6bd 5cff 93be c7cb 37ba
000000f0: 49e9 91be b595 35bd 7e2a 9bbe 553d ac3d
00000100: 2d83 0dbe d422 5e3e 9189 ddbe 2fb5 89be
00000110: 6010 6c3e 93b3 c5bd c8c2 1dbe fb4b 83be
00000120: e587 b3bd 84cf aabd 8af7 39be 080e e83d
00000130: 0dcb a1be 3dda 90be dd47 59be 7d9e b93e
00000140: 32c4 eb3e acff 85be 6f02 05be d17f 033d
00000150: c6a5 a4be 4f17 79bd 63a0 c8be 3949 47bd
00000160: 277b 21be f0e2 0c3e c4e6 babe e8f3 43be
00000170: 7a41 3b3d 6351 0a3d ef10 e9be 7888 ab3e
00000180: 31e7 f0be 12ba 22be f4e3 57be 1224 efbe
00000190: f2f8 90be 60ad e23d 5f79 943c 95b5 a33e
000001a0: 1dd5 c03e 82bb fbbe 4ed2 043e c8e3 7bbe
000001b0: 8b1c 513e 8eb4 5b3e ea9c af3e 89a3 37be
000001c0: b23f 47bd 50c2 93bc e10b e3be 28a8 3cbf
000001d0: fd5f 1cbe 6530 9cbe 8a41 37bf 0027 403d
000001e0: ef97 bfbd a9da 993d bde7 94bd 4e14 4fbe
000001f0: 0785 4cbe c8a9 e7be ae1d dbbd 5aea ec3d
00000200: e61b 173d 93d6 d8bd da84 ccbd 28b5 34be
00000210: 48a2 8bbd 0a6f 0ebd 6fc4 49be 0767 29bf
00000220: 72bf 85be 10ab 97be 8b0b 5abe 3d08 0dbe
00000230: 9e29 20be 5dd2 f63e b979 18be 7dea 113e
00000240: ef68 fb3d 73c2 46be 4eff 1e3e 2fa9 5dbe
00000250: 8a02 3f3e 9baf b3be dbf3 4c3d 3e98 1abd
00000260: e63b febd 2db7 3bbe 3489 0d3e bcdc 5bbe
00000270: 6bf2 74be a91c ae3d 7bf1 c13e 1f4e 273e
00000280: 7e5e 46bd 745c acbe e9d0 4f3b 42fe 3d3d
00000290: a090 32be 7295 81bd e8c9 e23d e14c 0d3d
000002a0: 94f8 97bb f145 df3d a965 de3d d634 c93d
000002b0: 3fe6 01bd fcd5 b5bd 0355 023d d42a babe
000002c0: 3792 cc3d 5205 0b3d 03a2 ab3e 5491 993e
000002d0: 1845 debc ec33 6f3e 405e 1abd 6e6f 82bc
000002e0: 000e b03d 4173 c4be ef13 21be 5ab7 f33c
000002f0: 1f8c 133e aefa ea3c 9435 bfbe 14a2 f03d
00000300: f42c c2be 2ca8 ab3e 81ce 31be 6662 c5be
00000310: ac28 013e 5016 00bf 22ff 293f d7d0 9abd
00000320: 34e9 d33d d589 113e b338 c5bc 9ef5 7f3e
00000330: 06af cebe 1104 a73b b965 28bf 61fa 9a3d
00000340: bb85 653e c754 cdbe 5596 b3bb 9882 573e
00000350: be3d b5bd 495c dcbd 687b 1fbf 7c9b 053d
00000360: 0f57 9cbe 5343 b53e 3848 1dbf 10fc 33be
00000370: a1b6 afbe 78cc a1bd 4108 11be 78f5 b7be
00000380: d1e0 803e b87c 59be 1cf4 06be 80c5 9d3e
00000390: 1087 2b3d 7cad 1abf 19a1 873d 4741 7c3e
000003a0: 945a abbc 4c58 a3be 7045 21bd fcd8 10be
000003b0: 2975 df3e e5f7 babe c8b7 7c3d 6c9e e1be
000003c0: 5807 2c3d 9df0 f4be c121 fabe 9e4d 8fbc
000003d0: 3242 e3bd f6f4 84be 0dc5 203f fc02 f3bd
000003e0: 3046 023e 9c7f dd3e cf90 a53d be01 c53e
000003f0: d0ff 20be b1ff 9fbe 7aba 683e c971 b8bc
0.051719066 -0.22112791 0.10386853 -0.19928242 -0.34201103 -0.13574687 0.012332883 -0.36425143
-0.31662947 -0.29856446 -0.32363242 -0.4384176 -0.04207866 0.03813982 -0.0859327 -0.024281261
-0.051969018 -0.026640004 -0.015094085 -0.18411782 0.15308191 -0.012852997 0.27891052 -0.23291296
0.09639309 -0.1798174 0.18093884 0.05679422 -0.1420355 0.10259712 0.06827356 0.2120729
0.12306632 -0.21422221 0.12129084 0.09868108 -0.09000445 -0.20476468 -0.110887274 -0.016124887
0.40445235 -0.2587791 -0.19160183 -0.27952644 -0.025759375 -0.061229747 -0.70570964 -0.31014633
0.0025853994 0.13349345 0.14475124 -0.026697692 -0.2769466 -0.13643059 -0.06846661 -0.017238492
-0.2963641 -0.09679118 -0.2890576 -0.0007011261 -0.28498295 -0.044332225 -0.30305856 0.08410136
-0.13819571 0.21692973 -0.43269017 -0.26896045 0.23053122 -0.09653392 -0.15406334 -0.25643906
-0.08766154 -0.08340362 -0.18160835 0.11330801 -0.31600228 -0.28291503 -0.2121882 0.3625373
0.46048123 -0.26171625 -0.1298921 0.032104317 -0.32157725 -0.060813244 -0.39184865 -0.048653815
-0.15769635 0.13758445 -0.36504185 -0.19136012 0.04571674 0.033769023 -0.45520732 0.33502555
-0.47051385 -0.15891293 -0.21083051 -0.46707207 -0.2831493 0.11068225 0.01812428 0.31974474
0.37662593 -0.49166495 0.1297085 -0.2459861 0.20421045 0.21455595 0.34299403 -0.17933477
-0.04864473 -0.018036991 -0.44345 -0.73694086 -0.15270992 -0.30505672 -0.7158438 0.046912193
-0.09355151 0.07512409 -0.07270763 -0.2022259 -0.19972621 -0.4524672 -0.1069902 0.115681365
0.03689184 -0.10587802 -0.09986277 -0.1764723 -0.06818062 -0.034773864 -0.1970384 -0.6617283
-0.26122624 -0.29622698 -0.21293466 -0.13772674 -0.15640876 0.4820737 -0.14890184 0.14249606
0.12275874 -0.19410114 0.15527079 -0.2164657 0.18653312 -0.35094914 0.050037246 -0.037742846
-0.124137685 -0.18331595 0.1382187 -0.21470922 -0.239206 0.0850156 0.37879547 0.16338395
-0.04842996 -0.33664286 0.0031710214 0.046385057 -0.17437983 -0.063273326 0.11073667 0.034497146
-0.004637787 0.10902012 0.10859234 0.09824531 -0.03171372 -0.08878705 0.031819355 -0.363608
0.09988826 0.03394062 0.33522043 0.2999369 -0.027132556 0.2335965 -0.03768754 -0.015922274
0.0859642 -0.38369182 -0.1573026 0.029750515 0.1440892 0.028683987 -0.37345564 0.11749664
-0.37924922 0.33526742 -0.17363931 -0.38551635 0.12613171 -0.50034046 0.66404927 -0.07559364
0.10347214 0.14212735 -0.024074888 0.2499604 -0.40367907 0.0050969203 -0.65780216 0.07567287
0.22414295 -0.40103742 -0.0054805675 0.21045911 -0.08849667 -0.107597895 -0.6229768 0.032618985
-0.3053517 0.35402927 -0.6143832 -0.17576623 -0.34319022 -0.079003274 -0.14163305 -0.35929465
0.2517152 -0.21238983 -0.13179058 0.30814743 0.041876853 -0.60420966 0.06622524 0.24634276
-0.020917214 -0.31903303 -0.03937286 -0.14145273 0.43644074 -0.36517254 0.061698705 -0.4406618
0.04199919 -0.47839823 -0.48853877 -0.017493065 -0.1109661 -0.2596814 0.62800676 -0.118658036
0.12722087 0.4326142 0.08084261 0.38477892 -0.15722585 -0.31249765 0.22727385 -0.022515194

ups.0.bias f4 [32]
00000000: e75b 2ebe de87 fcbd 8f72 c1bc c5bc a1be
00000010: a675 a6ba 2d87 30bb f500 26be 2238 3dbd
00000020: aabb a3be 48fa 113e 51f3 3fbd e776 79be
00000030: 2274 69bc 60cd 44be e000 97be 4367 053e
00000040: 5269 6a3d f5ae 91be 2776 8bbd 7a12 96bc
00000050: 23e8 3c3e 8b7e fdbd c02f ebbe c3c1 4dbe
00000060: 9fb5 023d c36c 29be 2129 9bbe 48a7 42be
00000070: 0d4c 89bd 193e 85be 7f53 0dbe f9f1 d23d
-0.17027245 -0.12330602 -0.023614196 -0.31589332 -0.0012699857 -0.002693604 -0.16211303 -0.04619611
-0.31979114 0.14255631 -0.046862904 -0.24361764 -0.01424888 -0.1921897 -0.29492855 0.13027672
0.057229348 -0.28453794 -0.06809645 -0.018319357 0.18447928 -0.12377652 -0.45934868 -0.20093445
0.03191149 -0.16545396 -0.30304816 -0.19009125 -0.06703959 -0.2602394 -0.13801382 0.10300059

ups.1.weight f4 [32, 16, 2]
00000000: cebb bcbc e8e7 09bd 03ff 103e bb7f fd3d
00000010: c30a 38be a9fe 23be 64af 2a3d b926 0b3d
00000020: dbf3 6cbe 2176 68be 2919 2abe feaf bb3c
00000030: b73f 12be 390a 54be 1252 b7bd e9ac 8abd
00000040: e782 b83c b0e8 363d 0e16 383c 583a 473c
00000050: 02d1 ec3d 9d06 98bb 80ff eb3d ea2f 0b3e
00000060: a1e8 263e 7e9b 4b3e 2784 b83c 146d 0f3d
00000070: 8c35 39be ec58 8dbc f7bf fa3c 50ba 0b3d
00000080: 4741 213c 1cce cc3c 2aba 31bd dfb6 09be
00000090: 3ec9 c7bd f46f 833e 91df 983e 34f9 883e
000000a0: 419e 803e d031 6b3e 2d84 573e b97e e73d
000000b0: 1a51 183e 0c4a 563e 530f 6dbd 57e5 2c3e
000000c0: 43ed c2bb 9031 c4bd 987a 9a3e b13f 9c3e
000000d0: 9e9c 7dbc 5c58 34bd 341f a73d 64cb d83d
000000e0: 51fc 073e 832c 833d e719 333c cc4b 2dbd
000000f0: fee9 eb3e ce67 2abe 784a 3a3c 5478 bd3d
00000100: f36a ea3c 861e 873d c1ef debc b2d4 d2bd
00000110: 136d e83d 5fcc f43d 0ef8 263e 4a2b 2b3e
00000120: e769 d23e fa54 1b3f 4946 623d 1f01 583e
00000130: 42ba a63e 42ed 1e3e eb35 92bd 5339 b03c
00000140: d427 ca3d a2cb 25bd 2a40 343e 8acd 693e
00000150: 9bd1 9ebc e0fc 0a3d 4284 1c3e 7462 ff3d
00000160: 3a6a 18be e2e7 423d 522a 1c3d 5e88 94bc
00000170: 1a84 793e 7940 8cbd 004c d43d 7c28 643e
00000180: 8e63 eebc a7fb 123b b9c9 3c3d be9e 9a3d
00000190: 1f11 02be 441c e0bd 758f 25be 1c2d 1fbe
000001a0: 4fc0 e3bd 2028 15be 061f afbe 210a c9bd
000001b0: 1921 97bd 1449 83be 481e 74bb 56d3 47bc
000001c0: 99bd 053b 307a bd3d b0e9 2cbe 9bb7 3dbe
000001d0: 8026 e03d 02d5 ee3d 3547 4fbd 9fb4 29bd
000001e0: 4b96 593d 1261 713d 67e3 6a3d 1b1f 333d
000001f0: 78ad 2cbe d42b 20bd 5e22 da3c 0f55 3bbe
00000200: 257a a83c d19e 5fbc f00a 01bd b3fa c13b
00000210: fe76 153d 07f3 60bd 5379 50be 2c19 45be
00000220: 380e a53d 1c14 1d3d 9e71 febc e8cc 57bd
00000230: a628 71bc f339 54bb 1524 083d 91e5 0dbd
00000240: 97f1 04bc eee7 45bd 0c82 1ebe 3504 0ebe
00000250: 1ce4 d0ba ad0f 4fbc c8c6 8a3d 8150 8bbe
00000260: cecb fcbd 913f c5bd 3982 f8bc 3db1 d93c
00000270: 32e9 4cbd 0770 3f3d 83e8 17bd c55d 953d
00000280: face c33b 6835 55bd 5779 4abb e5b9 bfbc
00000290: b036 dc3e 8ead 07be a8bb 173d d745 c33c
000002a0: 5716 19be 241c 413e bfd7 60be 7a7c 57bc
000002b0: afd8 01be a715 5f3c a608 ccbb 28bf 663e
000002c0: 45fe 3dbe 2322 9d3d 6054 4c3d b920 da3c
000002d0: a57f df3c c148 173e 99f4 01bd f12a cabd
000002e0: 9ff7 343d 9645 bd3b 2cb2 a8bc 093f 793d
000002f0: b637 523e 132c 77bd 5979 4cbe e1d0 ad3e
00000300: 0842 583e b973 973c 82d6 fdbd 801c a3bd
00000310: fc51 303e 5346 1c3e 0b09 373c 19e7 1abb
00000320: 364a 613e 2842 f73d 07ff 5ebd 1a7e cfbd
00000330: 02e0 413e 7618 893e 11a4 d9bd 5f9a c2be
00000340: b7c1 3e3d 75fe 62be 5751 fdbc 8c0e e8bc
00000350: 1401 0e3a 7939 95bd f2b5 f238 c0c2 15be
00000360: f482 65bc cceb a23d 95fb e23c d211 5dbb
00000370: 200a 423e d208 d03b 988f 4ebd b75b 873e
00000380: 6a3e 353c 289e 4bbb 8f91 833d f8dd aa3b
00000390: 33c0 dcbc 2213 bfbd 64eb 093f 8ecd 073f
000003a0: e103 1c3d 7327 5b3d df92 82bd cef6 dd3c
000003b0: 9a7d e73c 6fd5 573c 0676 2dbe aeb9 c0bd
000003c0: b086 493d 92d1 28bc 8af9 d93e 5626 d73e
000003d0: edb1 a03d 10e4 9a3d 2366 b5bd cffc 1a3e
000003e0: 8142 363e 6e1a 1e3b 3407 bb3d 1d82 c63c
000003f0: 1c8e 573d e582 dbbc cd56 64bd 80ef 25bd
-0.023038771 -0.03366843 0.14159779 0.12377878 -0.17972855 -0.16015114 0.04167117 0.033972476
-0.23139898 -0.22701313 -0.1661116 0.022911068 -0.14282118 -0.20707025 -0.089512005 -0.06771261
0.022523357 0.0446555 0.011235727 0.012159906 0.115633026 -0.0046394602 0.11523342 0.13592497
0.16299678 0.19883534 0.022523953 0.035016134 -0.18086833 -0.017254315 0.030609114 0.03411323
0.0098422235 0.025000624 -0.04339043 -0.13448666 -0.09755181 0.2567135 0.29858068 0.26752627
0.25120738 0.2296822 0.21046515 0.11303467 0.14874688 0.20926684 -0.057875942 0.16884361
-0.005948694 -0.09579766 0.30171657 0.30517343 -0.015479235 -0.04402958 0.081602484 0.10585669
0.13279845 0.06404974 0.010931469 -0.042308614 0.4607696 -0.16641161 0.011370294 0.092514664
0.02861545 0.06597619 -0.027213933 -0.10294475 0.11348929 0.11953043 0.16305563 0.16715732
0.41096422 0.6067654 0.05524281 0.21094178 0.32563978 0.15520194 -0.0713919 0.02151171
0.09870878 -0.040477403 0.17602602 0.22832313 -0.019387057 0.033932567 0.15284827 0.1246995
-0.14884272 0.047584422 0.038126297 -0.018131431 0.24366799 -0.06848235 0.10366058 0.22281069
-0.029100206 0.0022427829 0.046090815 0.07549809 -0.12701844 -0.10942891 -0.16168006 -0.15544552
-0.11120664 -0.14566088 -0.34203357 -0.09816385 -0.0737936 -0.25641692 -0.0037249494 -0.0121963825
0.0020407198 0.09251821 -0.1688602 -0.18527071 0.10944843 0.11661722 -0.050605018 -0.04143202
0.053121846 0.058930464 0.057345774 0.043730836 -0.16863048 -0.039104298 0.026627716 -0.18294166
0.020566056 -0.013648705 -0.03150457 0.0059197783 0.036490433 -0.05491927 -0.20358782 -0.19247884
0.08059353 0.038349256 -0.031060036 -0.05268565 -0.014719164 -0.0032383173 0.033237536 -0.03464276
-0.00811424 -0.04831689 -0.15479296 -0.13868792 -0.0015937123 -0.012638015 0.06776196 -0.27209857
-0.1234356 -0.09631265 -0.030335533 0.026573772 -0.05002708 0.046737697 -0.037086975 0.07293276
0.0059756013 -0.052052885 -0.0030895078 -0.023404071 0.43010473 -0.132498 0.037044197 0.023837013
-0.14949928 0.18858391 -0.219573 -0.013152236 -0.12680314 0.013616002 -0.006226617 0.22533858
-0.18554027 0.07672527 0.049885154 0.026626932 0.027282545 0.14773847 -0.031727407 -0.09871472
0.044181462 0.0057761176 -0.020592771 0.06085113 0.20529065 -0.060344767 -0.19968165 0.33948424
0.21118939 0.018487798 -0.1239443 -0.0796442 0.17218775 0.15261202 0.01117159 -0.002363628
0.22000965 0.12073165 -0.05444243 -0.10131474 0.18933108 0.26776475 -0.10626996 -0.380084
0.04657146 -0.2216738 -0.030922575 -0.028327249 0.0005417031 -0.07286353 0.00011573349 -0.14625072
-0.014008272 0.07955131 0.027707854 -0.0033732546 0.18949175 0.0063487077 -0.05042991 0.2643716
0.011062244 -0.003106961 0.064242475 0.005214449 -0.026947116 -0.09329821 0.538748 0.53048027
0.038089637 0.05350442 -0.0637567 0.027095225 0.028258134 0.013173445 -0.16939554 -0.094104156
0.049200714 -0.010303872 0.42573196 0.42021435 0.07846437 0.07563031 -0.08857372 0.15135501
0.17798807 0.002412464 0.09132233 0.024231965 0.05262576 -0.026795814 -0.055746842 -0.040511608

ups.1.bias f4 [16]
00000000: 2ed3 65bd 81e0 35be 81a4 4dbe e70e b83d
00000010: 5823 3cbe 555e 1ebe 14b8 10be 935e 2fbe
00000020: f860 58be 4e1e 633d b8af c2bd 9c37 85be
00000030: 0cda efbd 0099 ccbd 9924 5cbe 58f3 3dbe
-0.0561096 -0.17761423 -0.20082285 0.089872174 -0.18372858 -0.15465672 -0.1413272 -0.17125921
-0.2113074 0.055448823 -0.09506172 -0.2601899 -0.11711511 -0.0999012 -0.21498336 -0.1854986

resblocks.0.convs.0.weight f4 [32, 32, 3]
00000000: 8c8f ccbe a08e bcbe 395d 7abe 1853 10bf
00000010: 06aa c43c 10a8 25be f43a 383d f512 d2be
00000020: cc5e c53e 78df 053d 88e7 21bd b717 b13e
00000030: 67fe cfbd ddcc d1bd b635 593e 7ecc dd3e
00000040: 2374 c7be d3b9 1a3d 90dd 03bf a949 18be
00000050: d073 81b9 0d64 8d3e 5461 2e3d 2aab 12be
00000060: 3c55 783e 2559 83be 1e58 a23e 97c8 4e3f
00000070: 1996 8fbd c053 bdbe 18d2 193d 7048 f13d
00000080: 4a56 583e 7f9e 23bf a499 063e fc2c 11bd
00000090: c641 8e3e 6b8b 8bbe 258e 913e f3eb 46be
000000a0: 73cb d3be 0bdc 70be 1ad0 1e3d c636 dfbd
000000b0: 7ec1 f2be 46e4 8f3e ecb0 77be fbea 963e
000000c0: 6658 72bd b795 8c3e d490 99bd 0917 fdbc
000000d0: 33b3 773d 6e6d 6c3e 8374 15bf e113 84bd
000000e0: 58d4 36bf 5415 ebbe 6f19 8b3c a4f5 f8be
000000f0: ecee 0a3b ea05 143e 69a8 e7bb 9fd1 dbbd
00000100: ae56 64be d1bc 85be 9bae 8ebe acdc c6be
00000110: 454f 8b3d c019 77be 46f2 4c3f a063 21be
00000120: 6a15 acbe dec1 903d 6781 123f a507 3e3e
00000130: 2886 853e 5a4d 8a3e c4be 013f 6879 26bd
00000140: d5a4 0cbf 08a0 3cbe 96bd 87be 1069 5ebe
00000150: b14c d7bd 744f 84be 7f17 70be 8a45 9bbe
00000160: f49d 513e ca3f c4bd b95b 673e 7cf9 8f3e
00000170: 7542 2c3d dab4 d3bd 4cb3 2ebd 08af b6be
00000180: bc9a 20be 5559 a23e 45d9 69be 50c5 613d
00000190: 8ac0 39bf 30d7 99bd 1500 cc3e 0261 073d
000001a0: ba3f 563e 8621 1d3f e177 88be bed1 0f3f
000001b0: f924 36bf fe82 61be 7f0b 763e 3ca7 9b3e
000001c0: 42e8 4e3d a2e7 763e 2199 ecbd 7c50 2d3e
000001d0: 118b b1be 2ca4 c6be 1e8f d1be 0c08 91bd
000001e0: b194 2abc f1f0 3d3e 42dc 74be 20e8 23bf
000001f0: cd52 1ebe 5535 2abf 75b3 fabe fae9 843d
00000200: c507 903d d6ce 4cbe d2ad 0b3f c914 d33d
00000210: def0 bdbd 0aea d83e 5d97 023f e427 4fbe
00000220: c89f bcbe 0d04 15be 655d 2f3d 6155 b13e
00000230: ff8a 0abe 0f9a edbc 381b c2be 7733 ffbe
00000240: e1e3 51be 244b 0fbb 359c 373e 17dd 7c3e
00000250: 4f81 47be 1328 0dbd 2954 163d ffc8 61bf
00000260: 0713 08be 0469 9cbd e235 503e 8e1e cabe
00000270: 8ab5 16be a90f 9b3c 149e 453e 4928 803d
00000280: fa52 21bf 4330 b43e d728 58bd 7ec4 b5bd
00000290: c199 3d3e f64f b33d 9196 6ebd 2320 933d
000002a0: 83be 213e d3a1 03bf cef6 49be 4bb2 64be
000002b0: 6d3e efbd ef82 9cbd 8311 ccbe 14d9 92be
000002c0: 714a 89be 6518 763d 78a7 b8be c61e b13c
000002d0: 22a4 06bf 41b8 22bf df79 e6be b235 87be
000002e0: ec33 cf3e d3a8 6a3e 5d01 dabe 696c 0d3f
000002f0: 0ee6 86be 0548 72be f91a 7bbe df23 3a3c
00000300: cf53 2abe 8bd0 ec3c c89b 9f3d d029 6e3e
00000310: f41e 8e3e 9961 21bd 4f3c 40bd 0109 5fbf
00000320: 50a3 a7bd fa79 ff3d 565b e8bc 8038 f23e
00000330: a291 033e abd3 f83d 6284 273d de59 173e
00000340: d97e efbe f81f 58be 8a2b fdbd 6e83 3bbe
00000350: d514 95be f9a9 1f3f 2e21 0d3e 16f0 fa3c
00000360: 3691 903e 963d 19bf b4a6 7abe 266e 18bf
00000370: 1c4b 6e3b 7e3c 793c 56ce 00bd 1ebe 53be
00000380: 8cf2 ea3d 2230 223c 4329 733e 3d04 e6be
00000390: 6497 09bf 1a84 26be 6c30 953e bbcd 0d3e
000003a0: 2ad9 aebd 4f09 f63d 1c92 dfbe f3c4 8d3e
000003b0: 2a99 103f 5366 6ebe 1614 9b3e f44f 36be
000003c0: b645 afbd 5dad 933e 5729 333e 756c 983c
000003d0: f794 87be b17a c13d 7697 dd3d c70a eabe
000003e0: fc08 81bc 3144 17be e0f5 863e d925 c4be
000003f0: 7d3f 2cbe 5f02 603d 34e3 e33e ccf2 2c3e
-0.39953268 -0.36827564 -0.24449624 -0.5637679 0.024006855 -0.16177392 0.044978097 -0.41030088
0.38548887 0.03268382 -0.039527446 0.34588405 -0.10155945 -0.10244153 0.21211895 0.43320078
-0.38955793 0.037774872 -0.5150995 -0.14871849 -0.00024691084 0.27615395 0.042573288 -0.14323106
0.24251264 -0.2565395 0.31707853 0.80774826 -0.07011051 -0.3697796 0.037553877 0.117813945
0.21126667 -0.6391372 0.13144547 -0.03544329 0.27784556 -0.27254805 0.2842876 -0.19425945
-0.41366157 -0.2352144 0.03877268 -0.10899119 -0.47413248 0.28103846 -0.24188584 0.2947615
-0.059166335 0.27457973 -0.07498327 -0.030894773 0.060473632 0.23088619 -0.5838091 -0.06449104
-0.7141776 -0.4591471 0.016979901 -0.4862491 0.0021199537 0.14455381 -0.0070696366 -0.107333414
-0.2229869 -0.26120618 -0.27867588 -0.38840234 0.06802229 -0.24130917 0.8005718 -0.1576066
-0.33610088 0.07068227 0.572287 0.18557604 0.26078916 0.2701214 0.5068171 -0.040643126
-0.54939014 -0.18420422 -0.2651183 -0.21719766 -0.105126746 -0.25841868 -0.23446463 -0.30326492
0.2047041 -0.09582479 0.22593583 0.2812003 0.042055566 -0.10337229 -0.04265146 -0.35680413
-0.15684026 0.3170878 -0.22836788 0.055119812 -0.72559416 -0.07511747 0.39843813 0.0330515
0.20922747 0.6137928 -0.2665396 0.56179416 -0.71150166 -0.22022626 0.24027823 0.30401027
0.050514467 0.24111798 -0.115526445 0.16925234 -0.34676412 -0.38797128 -0.40929502 -0.07081613
-0.010411427 0.18548943 -0.23912147 -0.6402607 -0.15461273 -0.6648763 -0.4896504 0.0648994
0.07032732 -0.20000777 0.54562104 0.10306699 -0.092744574 0.42366058 0.5101221 -0.20230061
-0.36840653 -0.14552327 0.042813677 0.3463545 -0.13529585 -0.029004125 -0.3791139 -0.49843952
-0.20497085 -0.0021864856 0.17930682 0.24693714 -0.19482921 -0.034462046 0.036701355 -0.8819732
-0.13288508 -0.07637218 0.20333055 -0.39476436 -0.14717689 0.018928366 0.19298583 0.06257684
-0.6301724 0.3519307 -0.052773323 -0.088753685 0.18515684 0.08755486 -0.05824906 0.07183864
0.1579533 -0.514188 -0.19723055 -0.22333638 -0.11681829 -0.07642161 -0.3985711 -0.28681242
-0.26814607 0.06008186 -0.3606527 0.02162112 -0.52594197 -0.635624 -0.45014855 -0.26408154
0.404693 0.22915964 -0.42579165 0.55243546 -0.26347393 -0.23660286 -0.24522008 0.011361091
-0.16633533 0.028908035 0.07793385 0.23258138 0.2775799 -0.039399717 -0.046932515 -0.87123114
-0.08185446 0.12474437 -0.028363865 0.4730873 0.12848523 0.121497475 0.040897734 0.14780375
-0.46776465 -0.21105945 -0.1236182 -0.18311855 -0.29117456 0.6236873 0.13782188 0.03063206
0.28235787 -0.598596 -0.24477655 -0.59543073 0.0036360687 0.015212176 -0.031446777 -0.20677993
0.114720434 0.009899171 0.23746209 -0.4492511 -0.5374663 -0.1626133 0.29138505 0.13848011
-0.085375145 0.12013494 -0.4366616 0.27689323 0.5648371 -0.23281221 0.30288762 -0.17803937
-0.08558218 0.28843203 0.17496239 0.018606404 -0.2648084 0.0944723 0.108199045 -0.45711347
-0.015751354 -0.14772107 0.26359463 -0.38310125 -0.16821094 0.05468976 0.4450928 0.16889495

resblocks.0.convs.0.bias f4 [32]
00000000: 86a3 d2bd 8c8a c5bd c152 0dbe e978 76be
00000010: b35a c13d 2a36 253e d2a3 51be 95b7 69bc
00000020: c2c2 c83d 3cb9 e83d 345e 4dbd 4d8c 6bbd
00000030: b5d0 123e b87d d1bd aac5 a8b8 5a9c 8bbe
00000040: 4504 abbd 6f11 7ebd c40d 303d d130 56be
00000050: 2288 17bd f135 093d 6fb8 a0bd 60a9 93be
00000060: fc1e 66be d9de b1bd b996 46be 89ac bfbd
00000070: a917 87bd cc21 29be 0897 023e 766e da3b
-0.10285096 -0.09645566 -0.138011 -0.24069561 0.09441128 0.16133943 -0.20472649 -0.014264961
0.09802772 0.11363456 -0.050138667 -0.057506848 0.14337428 -0.10229057 -8.047682e-05 -0.27267724
-0.08350424 -0.062028345 0.042981878 -0.2091706 -0.03699506 0.03349871 -0.07847678 -0.2884016
-0.22472757 -0.08685083 -0.19393434 -0.0935908 -0.0659631 -0.16516799 0.12752926 0.006666

resblocks.0.convs.1.weight f4 [32, 32, 3]
00000000: aadc 2f3e 6d65 debe 6de7 f5bc ca9f 3cbd
00000010: 6f09 4dbe 5e74 0ebe 2d69 46be b903 1d3e
00000020: 465d a63e fee1 11bf b12f 943c 115e ba3e
00000030: d9fc 5cbe 4f49 03bd debb 05be 7b62 a73e
00000040: 5039 793d 58ef c2be b8d5 b13c 1ca8 01bf
00000050: a964 923e 8da5 c53b 419c 843c 6acf 54be
00000060: d5b1 c8be be35 013e ee71 843e d1ce 91be
00000070: 5f29 f5bd f3bf 0fbe 9f50 f53e e1cb ee3d
00000080: 572f 9f3e 9a67 a13d c728 23bf 612f 3d3e
00000090: 9242 50be 5701 103e 7476 0b3e 70a1 3cbe
000000a0: f101 873e 4472 5ebe 791c 0c3e bf3e ee3e
000000b0: 283a 8abe 8892 42be a1df 2b3e e85e 623e
000000c0: 55e1 853e 5525 81bd 6b6d 453e 4155 4fbd
000000d0: b5df 90be b4c8 dd3d 937e 073e 417e 643e
000000e0: 121b 233d be57 aabe ace8 0bbd 2b5c ffbe
000000f0: e967 42be 8181 563e aff9 553e 281c 073c
00000100: 3ad6 1a3e 0a3b 83be d85f 9a3e 12aa 2d3e
00000110: 7009 b23c 546e 68be 6f38 073e a428 4b3e
00000120: d216 5abd 99d3 6f3e 6378 063e 11ed 663e
00000130: bc28 e6bd 2e98 9abe a038 80bd 8e9a 30bd
00000140: f2d9 843e 293a f83d d1f1 b1be 7123 53be
00000150: 5aa9 3f3e caa6 06be 4af4 363e e6ab e93e
00000160: ac24 a33e 6a59 5c3e 7b66 06be e8ee 1f3e
00000170: 1c04 bfbd 7545 d63e 36a7 8fbe f210 91bd
00000180: 338c 6e3d 34c6 56be ddbc d83d f63a c2be
00000190: 86eb aabe 317d b4be 4d19 8abe 35a4 11bf
000001a0: 0c53 21be d2a1 b03e 56c4 b43e 968f 91bd
000001b0: fd79 c5bd 28fc e33c 6cbe 88bd 3a6e b73e
000001c0: 6ee7 e63e 9df5 a53e d4fc 7f3d 157b 39be
000001d0: b552 71be c54d 983d 709e 6dbe 809a 693d
000001e0: e1d6 ea3d 1562 0d3d b2da bdbd 1072 d7bd
000001f0: 6be5 763d 2231 8cbe 0c33 7f3d 7463 de3e
00000200: f11d 2abe 1c0e 2e3e 90fa cd3e 31f0 a2be
00000210: 905b 04bf f943 083e 8c59 573e b22b 5bbe
00000220: abad 653e 21ad 3c3e 18a6 833e b6c9 ca3e
00000230: af2c 22be 5a30 d9bd bffd 8dbd d7e1 e3bd
00000240: d18a 023f e3ec 063e aa1d 69be 57fb 54bd
00000250: ebc9 373e 1598 13bd f319 20be d197 463e
00000260: 26f1 02bf c072 e8be 04ad a4be 5e97 af3e
00000270: 8580 523e c989 ffbd ef1c eabe cba1 593e
00000280: 5708 443d 2739 e53d e2c3 ef3e 9feb b63d
00000290: 9a2c b63b b805 903e 29a2 173e 80ac fdbe
000002a0: 5b92 973e 21f8 fa3d 18e8 a33d 08ae 82be
000002b0: f1d0 e6be 7e10 633e 08a5 8a3e a3dd 8e3d
000002c0: eff0 593e 07a1 8abe 0228 9ebe 8d31 863e
000002d0: 72d2 073d fd0c 9e3e b8f4 ad3d 971b 11bf
000002e0: 4217 943d 9379 713c 0531 a6bd 6f33 423e
000002f0: 4528 24be a6a3 a9be 0e5f c63d 8d93 d1bd
00000300: 7896 fd3e 9173 3b3f f31f bebe 18c8 c0be
00000310: 0faf 9bbe 512f d8bd f4e8 033c eeb2 4dbf
00000320: afa1 f4be edf5 aabd 43fb 943e 309e 55bd
00000330: c314 923d 5959 00bc 418d 8c3d 02ad 5f3d
00000340: c800 aa3d 568c 893e 5815 aabe e424 58bc
00000350: 4a57 77be a484 dcbd c4a7 b2bd 4033 febd
00000360: dc5a 92bd dbc0 21be 9d39 1d3f 8d50 503e
00000370: 0f53 133f 4c30 90bd dbd6 063e 9c80 403d
00000380: b814 9a3e 848f 573e fda6 393e 17bf 82bd
00000390: ea61 04bd 44f4 e73d ff8a a2be 2ee5 f53b
000003a0: 2062 2dbb 21d4 823d 1af1 853e a8eb 6abe
000003b0: 1e73 9ebe 986e 76bd c978 a3be c3bb c5be
000003c0: e3fc d23d a3c4 82be c0c2 a33b c076 9fbe
000003d0: 0a4b ed3c fadc 8ebd afde c13e 8d7d 86bd
000003e0: a69b c2be 36ac 183e 213f 03be caa6 5c3e
000003f0: a55b cb3d 6d5f 7c3e 0104 593e 8306 933e
0.1717402 -0.43436757 -0.030017579 -0.046050824 -0.2002313 -0.13911578 -0.19376059 0.15333451
0.32493037 -0.5698546 0.018089147 0.36399892 -0.21580829 -0.032052334 -0.13059947 0.32692322
0.060845673 -0.3807323 0.021708354 -0.5064714 0.28592423 0.006031698 0.016187789 -0.20782247
-0.39198175 0.12618157 0.2586817 -0.284781 -0.119707815 -0.14038067 0.47913072 0.116599806
0.31090805 0.078810886 -0.63734096 0.18475105 -0.20337895 0.14063011 0.13619405 -0.18420959
0.2636867 -0.21723276 0.13682736 0.46532246 -0.26997495 -0.1900121 0.16784526 0.22106516
0.26148477 -0.06305949 0.19280021 -0.050618414 -0.28295675 0.10829297 0.13231878 0.22313787
0.039820738 -0.33270067 -0.03415744 -0.49875006 -0.18984951 0.2094784 0.20896028 0.008246459
0.15120783 -0.2563098 0.30151248 0.16959408 0.021733016 -0.22698337 0.13205121 0.19839722
-0.05324442 0.23420562 0.13131861 0.22551371 -0.11238238 -0.3019423 -0.062608 -0.043116145
0.2594753 0.12120468 -0.34754804 -0.20618989 0.18716946 -0.13149562 0.17866626 0.4563896
0.31863916 0.21518484 -0.1312503 0.15618479 -0.09326956 0.41849867 -0.2805726 -0.0708331
0.058239173 -0.20974046 0.10582898 -0.3793561 -0.33382815 -0.35251763 -0.26972428 -0.56891185
-0.15754336 0.3449846 0.35306042 -0.07107465 -0.09642408 0.027830198 -0.06676945 0.35826284
0.45098442 0.3241395 0.062496975 -0.18113358 -0.23566706 0.07436708 -0.2320497 0.05703211
0.11466766 0.034517366 -0.092702284 -0.105198026 0.060277384 -0.27381235 0.06230454 0.43435252
-0.16612984 0.1699757 0.40230227 -0.31823877 -0.51702213 0.1330718 0.21030253 -0.21403387
0.2242953 0.18425418 0.25712657 0.39607018 -0.15837358 -0.106049255 -0.06933164 -0.1112706
0.5099307 0.13176303 -0.22765222 -0.05199751 0.1794812 -0.03603371 -0.15634899 0.19393851
-0.51149213 -0.45400047 -0.3216325 0.34295171 0.20556839 -0.12477452 -0.457252 0.21253125
0.047859516 0.111925416 0.46829134 0.0893166 0.005559516 0.28129363 0.14807953 -0.4954567
0.29603848 0.12254358 0.08003253 -0.255234 -0.45081285 0.2217426 0.27079034 0.069758676
0.21283315 -0.2707598 -0.308899 0.2620968 0.03315968 0.30869284 0.08493942 -0.56682724
0.072309986 0.014738458 -0.081148185 0.18964933 -0.16030987 -0.33132666 0.09686099 -0.10233221
0.4952886 0.73223215 -0.3713375 -0.3765266 -0.30406997 -0.105559 0.008051146 -0.8035115
-0.47779605 -0.08347688 0.29097947 -0.052152812 0.07132866 -0.007833802 0.068628795 0.054608352
0.0830093 0.2686488 -0.3321941 -0.013192389 -0.24154392 -0.10767487 -0.08723405 -0.12412119
-0.07146236 -0.15796225 0.61416036 0.20343228 0.5754861 -0.07040462 0.13167898 0.04699765
0.30093932 0.2105084 0.18130107 -0.06384104 -0.03231994 0.11325887 -0.3174667 0.007504127
-0.0026456192 0.06388117 0.26160508 -0.22941458 -0.30947202 -0.060164064 -0.3192809 -0.38619813
0.103021406 -0.25540647 0.0049975812 -0.31145287 0.028966445 -0.06975742 0.37865207 -0.06566916
-0.38009375 0.14909443 -0.1281705 0.21548 0.09929589 0.24645777 0.21192934 0.28715906

resblocks.0.convs.1.bias f4 [32]
00000000: cb1e 883d 47d3 743c abbd b4bc c8c8 b0bb
00000010: 9ab6 bbbb faf8 cd3d 938e 223d 86e0 9f3d
00000020: b360 753e cc3e eabd 159c 253d f1e3 c13d
00000030: 352f dc3d 577d 023e 3eba 45bd 2be8 9b3d
00000040: 205d 87bd 9d79 f0bc 569c 6f3b 9ae6 673d
00000050: 386d 80bd b003 f03d cb72 6a3d 43b8 ea3c
00000060: 7d32 983c 6796 d6bc a1a4 81bc 0c91 b03d
00000070: 53a1 073e 7ff3 093d 9253 ff3d 9767 5b3d
0.06646498 0.014942951 -0.022063097 -0.0053950287 -0.005728555 0.10057254 0.03968675 0.07806496
0.23962669 -0.11437759 0.040432055 0.094673045 0.107511915 0.12743126 -0.048273318 0.07612642
-0.06609559 -0.029354865 0.003656169 0.056616403 -0.06270832 0.11719453 0.05723838 0.028652316
0.018578762 -0.026194764 -0.015825571 0.086214155 0.13245134 0.03367948 0.12467112 0.053565588

resblocks.1.convs.0.weight f4 [32, 32, 5]
00000000: 43b3 32bf df42 fbbe 3b45 c4be c37a 6ebe
00000010: 38aa 2b3e 79df 6dbe bf47 0bbe c4ed 4c3b
00000020: bd6e da3d b52a ddbe a01f d33d 2edd acbd
00000030: 77fe a9bd 16ef c1bd d38f b8be 3b40 343e
00000040: 5e81 86bd 6552 293e e386 16be ceba 4abd
00000050: 9ab2 7cbe 5a78 c93c 7f8b d3bd 4c93 de3d
00000060: 6ea0 4d3e be74 573e d8f9 babd a595 5cbe
00000070: b59a 8c3e 0419 6cbd 0f5e 98bd 605e 65be
00000080: 8a6d d8bd 4dfa 863e a7cb 1e3e 139d 4e3e
00000090: 0219 053e 8d6f 1ebd ca93 ca3e dadd d3be
000000a0: 3665 b4be 67a6 523d bb70 cdbc fbd4 aebe
000000b0: 3c60 80be dd9c b83e 0345 be3d 81d7 5b3e
000000c0: 3c99 d23e 0792 9abd ee86 33bd abc7 49be
000000d0: 6478 ef3d e404 95bc 8abd d5bd 833e 523d
000000e0: acf2 0b3e 78c2 583d 3aec 3b3e 03be a2bd
000000f0: 3c7d f8bc 02d3 7e3c 9e38 ebbe c0e6 9dbd
00000100: 9511 0abe 055b b2bd 9fa7 0bbe 176e 4f3e
00000110: a5f2 343d 86a7 2dbf e529 9d3d 838f 61be
00000120: 114e f83e 08d2 23be 2ba8 bdbe 1703 b83e
00000130: 346a a2bb cc5e a4bd b893 2fbc 1455 5bbd
00000140: 3de1 1c3d 4839 b53e 1309 cd3d a5d1 be3d
00000150: 350d b1be 358d 05be be76 503e e9f0 a9bd
00000160: f98c 5cbe 3bc3 20be b3a7 8fbe f8cb 80bd
00000170: 99cf d33d eaed 4abe b7a6 3a3e c4da d43d
00000180: 29e6 cebd 554a 933e 11c2 e63e cf67 933e
00000190: 809b a83e aae1 c3bc 832d 67bd a413 503e
000001a0: cb1d 88bb 6580 823d a66f b4be 4b1b 0cbe
000001b0: beb7 543e a0d2 233e 6009 0f3e d9d6 593e
000001c0: 918d 01be d5c8 943e b3e2 a6bd 5514 98bd
000001d0: 2a03 e3be 185f b43e 4b73 213e c4b0 e13d
000001e0: 3b6b 2bbc 217f 6abe 8cfc 9a3e e0be 44be
000001f0: 28cf e6bd ac6e 18bd 5f98 183f 8a52 59be
00000200: 7930 fbbd c3b0 57bd 1646 6f3e ae8e 00bf
00000210: 15f5 6bbe 5b8d 87bb f538 3cbe 63c0 f5be
00000220: f6f4 10be 3bc9 2fbd 8027 8fbe 45bb c5be
00000230: 4605 0abe 47fc b03e b32a 603e 2d52 3d3e
00000240: 4f72 bc3e b59c d5be 1baf 59bd 6181 e5bd
00000250: 3914 a3be 6678 613c 1e23 08be b6aa 7a3e
00000260: 8369 6fbe 0b28 febd 6f16 543d dbf1 a83e
00000270: ce00 c7be e71f fb3d 39cb c23e f31c 443e
00000280: 0641 3abe 325f 953c 46c5 023e 13db 273e
00000290: 7770 82bd 7a1b 8bbd 2de8 a9be 3205 1abf
000002a0: 4756 a2be 17cb 22bf dceb 15bc 3acf 513d
000002b0: 1dd7 3c3e 2813 7e3e 263b 4c3e 6857 653e
000002c0: e66b c13e 1059 15be e0ce 013e aa6f 483e
000002d0: 38b7 863e b786 1e3e 5a6a 2dbf 792d 83be
000002e0: 6e07 243e dcb3 d9bd a6b9 52bd 25ef 793d
000002f0: c6d5 a6be 495b b2be 6c64 923e 3e49 03be
00000300: 3ecb 153e 4481 9c3e a120 6fbd ebf7 573d
00000310: f9f0 1cbe 6e7b debe d034 7cbe b515 fbbd
00000320: 1a4a 483e 9cc1 07bf f5ea edbe a3a7 0d3c
00000330: 45b1 5bbe d6a0 9d3d 5257 5f3e 0017 0ebd
00000340: 2f68 393e 65c1 ddbd ba67 b13e a54c f3be
00000350: 4132 e5bd b120 513e fde7 cbbe 601d 453d
00000360: f73e 49be 3dce 20be 893c 4d3d 4b8d 893c
00000370: 4fa4 c93e 32e7 e13c 400b 07bd 5402 1c3e
00000380: 6a2c ab3e 1dda c43c 4584 c7be 4441 4fbe
00000390: 464b a93e 6c06 7c3e 4bc3 b8be baa7 5cbd
000003a0: 5c35 1ebe d606 03be 6145 76be 3cad a53d
000003b0: 2f07 bd3e 95a6 de3c 1f9a 27be dd3a d2be
000003c0: ecc4 6fbe 8a22 3c3e 7f70 00be 09f0 6abd
000003d0: 2e8a c23c fba2 4cbc 56ca 983e 2d44 0cbe
000003e0: b1cd 823b 24a8 19be 5c0c fe3d 658a b6be
000003f0: 886b 373e 8aad 333e 4823 873a 484a 003e
-0.6980478 -0.49074456 -0.3833407 -0.23289017 0.16764152 -0.2322978 -0.13601588 0.003126965
0.10665653 -0.43196645 0.10308766 -0.08440624 -0.083004884 -0.0946943 -0.3604723 0.17602627
-0.065676436 0.16535337 -0.14699893 -0.049494557 -0.24677506 0.02459352 -0.10329341 0.108679384
0.2008073 0.21040627 -0.09129685 -0.2154146 0.27461782 -0.057641044 -0.07439815 -0.22399282
-0.10567768 0.2636284 0.15507375 0.20177107 0.12997821 -0.038680602 0.3956588 -0.41380197
-0.35233468 0.051428225 -0.025078168 -0.34146866 -0.2507342 0.36057177 0.09290507 0.21468927
0.41132534 -0.07547384 -0.04382985 -0.19705074 0.116928846 -0.018190809 -0.10436542 0.051329147
0.1366679 0.052919835 0.18351832 -0.07946398 -0.030333154 0.015553238 -0.45941633 -0.07710028
-0.1348327 -0.08708767 -0.13638161 0.2025684 0.044176716 -0.67833745 0.076740064 -0.22027402
0.4849706 -0.1599809 -0.37042364 0.35939857 -0.004956508 -0.080258936 -0.010716371 -0.053547934
0.03830074 0.35395265 0.100114964 0.0931733 -0.3458039 -0.13042147 0.20357797 -0.08297903
-0.21538152 -0.15699475 -0.28057632 -0.06288904 0.103423305 -0.1981732 0.18227659 0.10393289
-0.10102493 0.28767648 0.45069936 0.28790137 0.32931137 -0.023911316 -0.056439888 0.20319992
-0.004153942 0.063721456 -0.3524143 -0.13682286 0.20773217 0.15998316 0.1396842 0.21273364
-0.1265166 0.29059473 -0.08148708 -0.07425753 -0.4433835 0.352288 0.15766637 0.110200435
-0.010462577 -0.22900058 0.30270803 -0.19213438 -0.11269981 -0.03721492 0.596075 -0.21222892
-0.12265105 -0.052658807 0.2336658 -0.5021771 -0.2304271 -0.004136724 -0.18381102 -0.47998342
-0.14155945 -0.042916518 -0.27959824 -0.38619438 -0.13478574 0.34567472 0.21891288 0.18488379
0.3680596 -0.4172112 -0.05314551 -0.11206318 -0.31851366 0.013761615 -0.13294646 0.24479184
-0.23380093 -0.12409981 0.051779207 0.3299702 -0.388678 0.12261944 0.38045672 0.19151668
-0.18188867 0.01823387 0.12770566 0.16392164 -0.06369107 -0.0679235 -0.3318495 -0.6016418
-0.3170645 -0.6359114 -0.009150472 0.051223017 0.18441434 0.24811995 0.19944438 0.22396624
0.37777632 -0.14584756 0.12676573 0.19573846 0.2631166 0.15481077 -0.67740405 -0.2562063
0.16018459 -0.106300086 -0.05144658 0.06101908 -0.3258497 -0.3483527 0.2859224 -0.12820908
0.14628312 0.30567372 -0.058380727 0.052726667 -0.15326299 -0.43453544 -0.24629521 -0.1226
0.19559518 -0.530298 -0.4646832 0.008645925 -0.21454342 0.07696693 0.21810654 -0.034689903
0.18106149 -0.10827903 0.3464945 -0.47519413 -0.11191226 0.20422627 -0.3982543 0.048123717
-0.19652925 -0.15703674 0.05010656 0.016791007 0.3938317 0.027576063 -0.032969713 0.15235263
0.33432323 0.024029786 -0.389681 -0.2023974 0.33065242 0.24611825 -0.36086497 -0.053870894
-0.15450042 -0.12795576 -0.24049903 0.080896825 0.36919543 0.027179042 -0.16367386 -0.41060534
-0.23414963 0.1837255 -0.12542914 -0.05735782 0.02374753 -0.012490029 0.2984187 -0.13697882
0.0039918055 -0.15005547 0.12404701 -0.35652462 0.17912114 0.17546669 0.0010310197 0.12528336

resblocks.1.convs.0.bias f4 [32]
00000000: 3881 52be 5894 afbd 325b 3dbe 75c4 31be
00000010: 5eee c6bd 323d a23d cc33 6fbe d7bc b7bc
00000020: 2fe9 e7bc 5545 8fbd 4aa2 d9bd aeaf 78be
00000030: 8742 113d 25fd cfbd 3891 b0be a37b 81be
00000040: c4da 5abe a35c 17be 64ed 48be 6834 94be
00000050: 7b9a 2dbe a05d 7dbe d372 4ebe b9ea a0be
00000060: 5b8a a9bd 1ac1 9dbe 48a5 3fbe 4229 0cbe
00000070: cd1a bebd 58f4 22be e5d0 47be abae 6abe
-0.20557106 -0.08573216 -0.1849182 -0.17360099 -0.09713434 0.07921828 -0.23359603 -0.022428913
-0.028309433 -0.06995646 -0.10626657 -0.24285766 0.035463836 -0.10155705 -0.34485793 -0.2528964
-0.21372515 -0.14781432 -0.19621807 -0.28946233 -0.16953461 -0.24742746 -0.2016099 -0.3142908
-0.08278342 -0.30811387 -0.18715394 -0.13687614 -0.092824556 -0.15913522 -0.1951328 -0.22918193

resblocks.1.convs.1.weight f4 [32, 32, 5]
00000000: 73a4 9cbe 7f34 25be 516b 1fbf ce4c 033d
00000010: a2c8 2fbe c4f7 b7bd 59cf 793e 4e15 02bf
00000020: 89fb 2fbe 694b 01bf d32a a63b 2da7 a0be
00000030: 5445 903d 60b9 6c3d ca9e 3ebe 55b8 293e
00000040: 21df 593e d6e0 333e 333b 41be 6f2a 193c
00000050: 7df4 0cbe 113e 3bbe 7a90 963e 14d0 8bbe
00000060: 0a5e cfbd 75f5 843c c7ff 073e d68f 21bd
00000070: bdd0 9ebe 45c2 95be 7334 70be 492e 023e
00000080: 9b55 c6ba 2b5e 15bd 6174 c3bc 6e97 6f3e
00000090: e99e c2bd 849b fc3d 7819 f73e 29bc 10bd
000000a0: 6728 c53e 9d10 063f d62e 003f d343 02bf
000000b0: 9985 dfbc a36c 663e bc86 ad3e 6c52 2f3f
000000c0: 894e 753e 032b 9f3e bd26 e03d b8f7 60bf
000000d0: 6708 a9be 1e23 693c c3ae 423e e192 0c3e
000000e0: 8896 92be 9e58 9fbc 07a7 e03c 7295 413e
000000f0: ae78 56bd 1607 9b3e 3447 0c3f cd12 113e
00000100: c2bc 0dbe fbdf 11be 3799 623d 44db 0e3f
00000110: ca63 08bd e2e1 6c3d 48cf 003f cfc1 7ebe
00000120: 4e0f 77be 41c3 053f 7577 973e 57c2 9ebe
00000130: c5ca d0be 51b9 d13d bd4e 6ebe 373d 13bf
00000140: c3c1 7dbe 9a83 783e bc2a 843d 729f 843d
00000150: f079 353e e35f 693c 8139 6cbb 8eab 19be
00000160: 3edc 96bc 1bc0 c0bd af89 8f3c 97fd 06bf
00000170: e16d 1f3e 2cba c13c 8c28 cabe f299 77bd
00000180: a3b1 dd3e 3fcd 663d 191d dcbe 4534 4b3e
00000190: 5884 3b3c a3e1 debe 5870 183d 2823 32be
000001a0: a333 18be 64d9 23bf e0ea 37be 04ba 2d3e
000001b0: 35f7 dabe 13e5 6b3e cfd8 173d 8fb2 b7bd
000001c0: 0f10 ad3e 139b 15be 372f 103d ab4e 613e
000001d0: b6cd babe 5b4c 0b3e 3896 8bbe f14f 5c3d
000001e0: 6f36 223d bfe4 e33c c7d7 01be 975a 0f3e
000001f0: b5bb cfbe 6fd5 06be d535 82bc fea9 643e
00000200: 924c 2fbd 683c fe3b e34a 263e 91a3 14bf
00000210: 97e6 bf3e 69dc 033f 287c b7be cb79 e9bd
00000220: 7848 1d3e e9d0 f63e 0570 94be 1333 d5be
00000230: ad3a 203c a6e6 823e 6f03 c3be 382c 25bb
00000240: e19e 243e 7c86 83be 928f ba3a 6f1b 003e
00000250: d162 dc3e bb6b 093e 6e65 3bbe 4823 e6be
00000260: 2984 ccbe 3aac 8abd c632 41be 3fb0 80bd
00000270: ee2f 36bd 2332 3fbe 6e86 573e 0684 94be
00000280: 45a4 a13e e740 04bd 850e fe3d e153 ccbe
00000290: 5dbb 493c 5a8a 323e ccb0 8abe 443c e8be
000002a0: d79e aebd f788 70bc 9045 4b3d 61c9 e4be
000002b0: 09ab d6be 3860 a9be b680 40be 7522 0c3e
000002c0: eacc a6be 56eb 75b9 81dd b6be 4fbe 1f3f
000002d0: b9c8 c93e 4363 2d3d b4ce bb3e 7de7 b7bc
000002e0: 819f 713e c5b8 f1bb 1a3b a9bc 83b2 223e
000002f0: 0f96 ea3d ef9b d7bd d3f5 3b3e 7c57 7d3d
00000300: b5c6 9cbe e651 c6bd 7cf4 b6be edb2 23bd
00000310: 2fa5 03be 5a25 52bd d3ed 00bd c951 8bbe
00000320: 707e 2d3e d0d8 63be b022 cfbd beee ca3e
00000330: 0e5c 513e 7b18 9abe da19 8b3e 4c2e a73d
00000340: cc4a 983e 42ca 8b3e be75 9f3e 8318 0a3e
00000350: 5378 323e 8cd1 e3bd ea6a 76be c1aa b53e
00000360: 7b25 c93e ed27 41bd 16ea bfbd 13a3 cfbd
00000370: bfe5 efbd cf75 993e 6cc9 a5be 86ff 683e
00000380: d517 473d e953 673e ab6c f5bc 2e63 babe
00000390: 005a 703e b032 cabe 255a 803d bbd7 103e
000003a0: cab8 36be 40e6 df3d 3be3 89bd 97cd 9fbe
000003b0: bf9c 8d3e 628c b8bd 5b38 2ebf 87b7 95be
000003c0: d3fe 313e 8830 8d3d 991f f9bc d4a8 22bd
000003d0: 705c 533e 6cfd dd3e f7ac ffbd 0f32 dbbe
000003e0: 9cee b73c 56c0 283f 12a0 b0bd a661 96bd
000003f0: b161 65be 97fd 0b3e 8546 4abe 7e13 163c
-0.30594215 -0.16133307 -0.62273127 0.03205567 -0.17166379 -0.089828044 0.24395503 -0.5081376
-0.17185797 -0.5050569 0.005071023 -0.31377545 0.07044473 0.057793975 -0.1861526 0.16574223
0.21276523 0.17566237 -0.18870239 0.009348496 -0.1376514 -0.18285395 0.29407102 -0.2730719
-0.101253584 0.016230324 0.13281165 -0.039443813 -0.3101863 -0.29249778 -0.23457508 0.12712969
-0.0015131714 -0.03646676 -0.023859205 0.2339761 -0.09502966 0.1233435 0.4826162 -0.035335694
0.38507387 0.523691 0.50071466 -0.5088474 -0.027285384 0.22502379 0.33891857 0.6848514
0.2395574 0.31087503 0.10944889 -0.8787799 -0.33014223 0.014229564 0.19011979 0.13727905
-0.2863047 -0.019451436 0.027423395 0.18904665 -0.052361183 0.30278844 0.5479615 0.14167328
-0.13841537 -0.14245598 0.0553219 0.5580332 -0.03329829 0.057832606 0.50316286 -0.2487862
-0.24126932 0.5225106 0.29583326 -0.31007645 -0.407797 0.102404244 -0.23272224 -0.5751528
-0.24780945 0.24268952 0.064534634 0.06475724 0.17722297 0.014244053 -0.0036045017 -0.15006849
-0.018415567 -0.09411641 0.017521707 -0.527307 0.15569259 0.023648344 -0.3948406 -0.060449548
0.4329959 0.05634808 -0.4299095 0.19844158 0.011445127 -0.43531522 0.037216514 -0.17396224
-0.14863448 -0.64003587 -0.17960691 0.1696549 -0.4276673 0.23036604 0.037072 -0.08969604
0.33801314 -0.14609937 0.035201278 0.22002666 -0.3648507 0.13603346 -0.27263045 0.053787176
0.039602693 0.027819036 -0.12679969 0.13999401 -0.40572897 -0.13167356 -0.01589481 0.22330472
-0.042797633 0.007758666 0.16239505 -0.5806208 0.37480614 0.51508194 -0.3583691 -0.11400183
0.15359676 0.4820626 -0.28991714 -0.4164053 0.009779614 0.25566596 -0.38088557 -0.0025203358
0.16076232 -0.2568854 0.0014233461 0.12510465 0.4304414 0.13420002 -0.18300411 -0.44948792
-0.3994458 -0.06771131 -0.18867025 -0.06283616 -0.044479303 -0.1867147 0.21047375 -0.29006976
0.3157064 -0.03228846 0.12405113 -0.39907745 0.012312737 0.1743559 -0.2708801 -0.4535848
-0.0852639 -0.014681092 0.049626887 -0.4468489 -0.41927364 -0.33081222 -0.187991 0.1368502
-0.32578212 -0.0002345269 -0.3571587 0.6239976 0.39410952 0.04233099 0.3668114 -0.02244925
0.23596002 -0.0073767626 -0.020658065 0.1588841 0.11454403 -0.10527789 0.18355493 0.06185101
-0.3062035 -0.0968359 -0.35733402 -0.03996556 -0.12855981 -0.051305152 -0.031476807 -0.27210835
0.16942763 -0.22250676 -0.10114038 0.3963527 0.20445272 -0.30096802 0.2716816 0.08163127
0.29744565 0.27302748 0.31144518 0.13485913 0.17428713 -0.11123952 -0.24064222 0.35481837
0.39286408 -0.047157217 -0.0937082 -0.10138526 -0.117137425 0.29972693 -0.32380235 0.22753724
0.048606712 0.22590603 -0.029959043 -0.36403793 0.23471832 -0.39491796 0.06267194 0.14144795
-0.17843929 0.109325886 -0.06732794 -0.3121154 0.2765865 -0.09011151 -0.6805474 -0.29241583
0.17382364 0.06894022 -0.030410575 -0.03971179 0.20640731 0.43357408 -0.12484162 -0.4281163
0.022452645 0.6591848 -0.08624281 -0.07342844 -0.22400548 0.13670956 -0.19753464 0.009159921
